policy-model-{episodes}.pt (torch, 239767 bytes, 6 tensors)

fc.0.weight f4 [128, 396]
00000000: f8f5 dabb e819 4cbd c817 9e3b fb9e 333d
00000010: d0f5 75bc f435 f3bc 215a 49bd 1fdf 3b3d
00000020: acc8 72bc 2f6a 303d 42b0 8b3c bbf6 35bd
00000030: 9480 adbc 1f88 2abd 4bfe fcbc 85fd 073d
00000040: b7b2 0a3d 4ba0 4abd b281 e83c 261e 45bd
00000050: d358 033d bd48 193d 68ab 40bd d1a9 17bd
00000060: 6597 febc 03a3 373d d8d5 99bc f761 3fbd
00000070: b80b 0fbd 71f6 013d f3ce 133d 8041 a8ba
00000080: f5ed 4b3d 1cd0 2abd 4c82 7cbc ecc6 093c
00000090: 489d e23b 73ff 3cbd f28a f43c 02fc ef3c
000000a0: c2dd e13c c605 22bd a985 153d bcbc 443c
000000b0: f341 0f3d fd59 d2bc d8de 253c 705f b03b
000000c0: 0e34 8dbc d054 10bc 82a2 813c 6364 403d
000000d0: 35fd 36bd 0d4b d2bc b153 493d a039 72bc
000000e0: e232 bdbc 51c8 153d c01d 2e3c ec51 28bd
000000f0: 0e64 d03c e6d5 cc3c 00b7 33bd bbc7 293d
00000100: 20dd 05bc e13b f4bc 0d3b 25bd 6782 acbc
00000110: 0778 babc de69 c23c bdc6 e5bc cf9e e3bc
00000120: 7047 5e3b ea98 e13c 3bbc f2bc d015 2d3c
00000130: b1f4 ecbc 661d 873c e411 7c3c 6ef3 fc3c
00000140: 402c 47bd 50ec 44bc 60d5 29bd 741f 6e3c
00000150: 21f7 193d 6d88 293d b03f 2a3c 38ff 93bb
00000160: a452 543c c09c ac3b 283c fa3b 0808 da3b
00000170: 9680 f03c f001 bdbb 314c 063d b889 93bc
00000180: 4b29 103d 7b7d 453d 702d 62bb 1125 373d
00000190: 1014 263c 49c0 153d 7cd5 10bc 19a7 3c3d
000001a0: 146d 0c3c 730f 3b3d ea79 a8bc ba13 36bd
000001b0: 27d5 313d b261 bc3c c014 243c 7fbb 143d
000001c0: 2021 223b 1c24 40bc 209b dc3a fa7f 983c
000001d0: 3482 24bc d06d 0b3c 7156 0b3d 6023 ca3a
000001e0: d094 11bd d8a1 9bbc 297c 273d 6893 4bbd
000001f0: 7ca8 cebc b675 0abd 187e febc 824d ec3c
00000200: 1aa7 a33c 1d6c 0c3d 32f7 c8bc 82f0 943c
00000210: 555f 02bd 287e 98bc 29e2 ccbc fc84 173c
00000220: e545 dcbc 3dc4 313d 8a4d ce3c d5b4 023d
00000230: ee04 4bbd a056 45bb e21e 983c 6ee5 2fbd
00000240: 57b0 343d e438 7a3c 928a aa3c e76a ebbc
00000250: 1e18 2dbd 2529 c9bc 254f 3e3d a68f 8f3c
00000260: d0c5 4bbc 9bad 4a3d 3626 a73c de0d be3c
00000270: ba59 2fbd 77e9 053d 4062 1cbd e735 4d3d
00000280: 2230 2ebd ad35 213d fc1d 3ebd 7f36 4c3d
00000290: d684 913c fd9e 18bd dab3 42bd 3d3e 3e3d
000002a0: 3900 343d 471e 213d 9198 183d 3f18 223d
000002b0: 69ea 373d f87f 40bc 69ee 10bd 285c 13bd
000002c0: 8086 b1bb 1e4e f93c a4ab 9abc e6e5 09bd
000002d0: 7c67 0a3c 8313 283d 5d2e 2e3d 822f 1abd
000002e0: 46fe b83c 79e7 1d3d 32d7 0fbd 1a02 ca3c
000002f0: 509a 923b b082 69bc 2ea3 9d3c 0a30 db3c
00000300: 023d 2cbd 81de 293d 86f3 df3c 8a24 df3c
00000310: c73f b0bc 106c a9bb 58c0 91bb 545d 32bd
00000320: 04a5 4dbd d266 9cbc 4eae bd3c c85e aabb
00000330: e6a9 9c3c 717e 1a3d 6c41 f3bc 2c51 c3bc
00000340: 2466 163c 5451 52bc 80ae 1ebb 2fdb 47bd
00000350: 9078 8fbb 6881 fc3b aecf d53c 3029 c8bc
00000360: 033e 32bd 5dd1 133d 3c6f 6e3c 20cc cdbb
00000370: aff3 483d 7560 243d 7c1f e9bc a53d 1f3d
00000380: dabf bdbc cdc6 133d 9871 28bd 222a c1bc
00000390: f3be 11bd 7adf 0abd 46ee d43c 5392 1ebd
000003a0: 9eee 8dbc 9d06 0cbd 600b d3bb 83c6 e5bc
000003b0: a441 1fbd 7e44 bc3c ad9b 30bd 12b0 c73c
000003c0: 4683 01bd 48ec 873b d0d0 e4bb e082 afba
000003d0: fd41 46bd d9bf efbc dc33 3d3c e532 323d
000003e0: fab7 02bd e822 4cbc 4087 953a f271 debc
000003f0: c484 80bc 7a16 fdbc 1a5f 3cbd 4042 493a
-0.006682154 -0.049829394 0.0048246123 0.043852787 -0.01501222 -0.029688813 -0.04915822 0.04586708
-0.014818352 0.043070015 0.01705182 -0.044424754 -0.021179475 -0.04163372 -0.030882975 0.03320076
0.033861842 -0.049469274 0.028382156 -0.048124455 0.03206713 0.037422884 -0.047038466 -0.037027184
-0.03107805 0.044833194 -0.018778726 -0.046724286 -0.034923285 0.031729165 0.036086034 -0.0012836903
0.04978748 -0.041702375 -0.015411925 0.008409243 0.006915722 -0.046142053 0.02985141 0.029294971
0.027571563 -0.039556287 0.03650442 0.012007888 0.034975003 -0.025677675 0.010123931 0.005382471
-0.017236736 -0.008809283 0.01582456 0.046970736 -0.04467507 -0.025670553 0.04915208 -0.014784247
-0.023095552 0.03656799 0.01062721 -0.04109375 0.025438335 0.025004338 -0.043875694 0.041450243
-0.008170396 -0.029813709 -0.04033952 -0.021058274 -0.022762312 0.023732122 -0.028048867 -0.027785687
0.0033917092 0.027538735 -0.02963077 0.010564283 -0.028925272 0.01649351 0.015385125 0.030877795
-0.048626184 -0.012019232 -0.041463256 0.014533866 0.037589196 0.04138987 0.010391161 -0.0045165084
0.012959156 0.0052677095 0.0076365657 0.0066537894 0.02935819 -0.0057680532 0.032787506 -0.018010005
0.03519563 0.04821537 -0.0034511946 0.044713084 0.010136619 0.03656033 -0.008839961 0.046057794
0.008570928 0.04566903 -0.020565946 -0.044452406 0.04341617 0.022995804 0.010014713 0.036311623
0.0024738982 -0.011727359 0.0016830899 0.018615711 -0.0100408085 0.008510068 0.034017984 0.001542192
-0.03554231 -0.018998072 0.040889893 -0.049701124 -0.025226824 -0.033803664 -0.031065986 0.028845552
0.019977141 0.034282792 -0.024531934 0.01818109 -0.031829197 -0.018614843 -0.025010185 0.009248015
-0.026888797 0.043400038 0.025183458 0.031910736 -0.04956525 -0.0030111447 0.018569414 -0.04294341
0.044113483 0.015272353 0.020818029 -0.028737498 -0.042259328 -0.024555752 0.046462197 0.017524552
-0.012437299 0.04948197 0.020403963 0.023199972 -0.04281018 0.032693353 -0.038179636 0.050100233
-0.04252637 0.03935783 -0.046415314 0.04985666 0.017763536 -0.037260998 -0.0475348 0.046446074
0.043945525 0.039335515 0.037254874 0.039573904 0.044901285 -0.01174926 -0.035383616 -0.03597656
-0.005417645 0.030432757 -0.018880673 -0.033666514 0.008447524 0.041034233 0.042524684 -0.037642963
0.022582185 0.038550828 -0.035117336 0.024659205 0.004473962 -0.01425235 0.01924285 0.026756305
-0.04205037 0.041471962 0.0273378 0.027239103 -0.021514786 -0.0051703528 -0.004447978 -0.043546036
-0.0502062 -0.019091997 0.023154404 -0.005199287 0.019123983 0.03771824 -0.029694282 -0.023842417
0.009179626 -0.012836773 -0.0024212897 -0.048793014 -0.004378386 0.007705856 0.026100006 -0.024433702
-0.04351617 0.036088336 0.0145528875 -0.006280437 0.04906052 0.04013105 -0.028457396 0.03887715
-0.023162771 0.036078263 -0.041123956 -0.02357966 -0.035582494 -0.03390453 0.025992524 -0.038713764
-0.017325696 -0.034185994 -0.006440565 -0.02804876 -0.03888096 0.022981878 -0.043117214 0.024375949
-0.031619333 0.00414804 -0.0069829 -0.0013390444 -0.048402775 -0.029266285 0.011548009 0.043505568
-0.031913735 -0.012459494 0.0011408105 -0.027153943 -0.015688308 -0.030894507 -0.045989133 0.00076774135

fc.0.bias f4 [128]
00000000: 0ea2 fa3c 96ae a93c 70a2 66bb 30ca aebb
00000010: 20b4 93bc df10 3a3d 14d6 04bc dc08 31bd
00000020: 200f 6dbb 072c 163d 7abd ae3c f442 6f3c
00000030: 409a b73b 0c53 563c fa20 80bc efe7 0a3d
00000040: 8505 363d e0ff 5b3b eba0 103d fa0c 3fbd
00000050: 2d5c c3bc 66c0 ca3c 3847 d3bb 77a3 023d
00000060: 00a3 32bb b8cf 81bb f6ac 13bd 03cf 053d
00000070: 8060 3c3b c745 2d3d 4cdd 19bd c09c 373a
00000080: b012 aebb bca5 5bbc ceb0 f53c a0ed 6ebc
00000090: 9864 d23b ee09 f23c 3eac 2dbd b651 43bd
000000a0: 13a1 2b3d a83a 163c d031 6a3b 9bee 463d
000000b0: 3564 0a3d 727c 943c 0bdb 363d 00b2 ac3a
000000c0: a002 cdba 7e2e eabc 9866 bfbb 0aa9 e13c
000000d0: 4909 083d f8b9 2e3c 3edb 90bc ec92 bbbc
000000e0: 5841 e7bb 4239 34bd 0b93 053d fee5 a33c
000000f0: cc27 20bd ba26 da3c a256 b53c 45ca 353d
00000100: 285d 1abc 60eb 99bb 84d1 66bc 7579 c7bc
00000110: e0a2 07bc 2844 14bc 3aee ac3c 4e99 e23c
00000120: b5cf 9dbc 6c3d 573c 6a98 13bd 0d99 b3bc
00000130: 68f5 edbb bbc7 2d3d 989a 4fbc 7232 be3c
00000140: 3443 12bc b7f2 043d 2227 f2bc ef8c 163d
00000150: fa22 8a3c 094c 143d 0eae 983c a6a0 893c
00000160: ea3e ec3c 2e23 893c 362a b33c 0e39 9c3c
00000170: e344 21bd a09b cf3a d19a 383d 2f68 203d
00000180: 2883 4cbd d8d4 8fbc d79c b4bc 708b 66bc
00000190: cd71 043d e65a 31bd 3a80 36bd fce1 573c
000001a0: cae2 08bd e056 3dbd 0702 1d3d c1f6 a8bc
000001b0: 0ec5 45bd 4025 a9ba 1001 353c 5064 6ebc
000001c0: b941 3b3d 3061 53bc 6a54 db3c 7f2c 333d
000001d0: 92cf 9c3c 22d5 88bc b93a d7bc ba42 22bd
000001e0: adef b8bc 341f b3bc 1033 bcbb 48ed a8bb
000001f0: d4b1 4c3c 9a19 d23c f964 1b3d 906c ae3b
0.030594852 0.020713132 -0.0035192035 -0.005334161 -0.018030226 0.045426246 -0.008107681 -0.04322134
-0.0036172345 0.03666308 0.021330584 0.014603365 0.005603105 0.013081323 -0.015640724 0.033912595
0.044438858 0.0033569261 0.035309713 -0.046643235 -0.023847664 0.024749946 -0.006447699 0.031894173
-0.00272578 -0.0039615296 -0.03605362 0.032668125 0.0028744042 0.042302873 -0.03756456 0.00070042536
-0.0053122863 -0.013406213 0.029991534 -0.014583021 0.006420683 0.02954575 -0.04240059 -0.047685347
0.04190166 0.009169258 0.0035735257 0.048567396 0.03378697 0.018125746 0.04464249 0.0013175607
-0.0015641041 -0.028586622 -0.0058410875 0.027546424 0.03321198 0.010664456 -0.017682668 -0.022897206
-0.00705735 -0.043999918 0.032610934 0.02000713 -0.039100453 0.026629794 0.022136036 0.044382352
-0.009421624 -0.0046972483 -0.014088038 -0.024349907 -0.0082785785 -0.009049453 0.021109689 0.027660992
-0.019264081 0.013137203 -0.036034025 -0.021923566 -0.0072619207 0.042426806 -0.012671135 0.023217414
-0.008927155 0.032458033 -0.029559676 0.0367555 0.016862381 0.036205325 0.018637683 0.016800236
0.028838594 0.016740408 0.021870714 0.019070175 -0.039372336 0.0015839227 0.04506952 0.039161857
-0.049929768 -0.017557546 -0.022047443 -0.01407133 0.03233509 -0.043299578 -0.04455588 0.0131764375
-0.033419408 -0.04622543 0.03833201 -0.020625474 -0.04828363 -0.0012904778 0.011047617 -0.014550284
0.045716975 -0.012901589 0.02677365 0.043743607 0.019141946 -0.016703192 -0.026273118 -0.039614417
-0.022575224 -0.021865465 -0.005743392 -0.0051552393 0.012493569 0.025646973 0.037938092 0.0053230003

fc.2.weight f4 [64, 128]
00000000: de40 733d 30a5 8dbd c00a 373b 1e8e 5c3d
00000010: 3e34 563d 96a3 293d 4c83 903c 588c 543c
00000020: 7d67 a13d 3c1e 86bd 064c 6c3d 7a2a 9dbd
00000030: e07c da3c 8e2f 7d3d 004a 933c 5e7d 5e3d
00000040: a17b 38bd 3a81 273d 1466 a5bd 4742 a53d
00000050: 5e11 4d3d dc58 e2bc 2206 2c3d e1ff 8cbd
00000060: 386c aebc d15b a23d 00cb ccbc 0096 623c
00000070: 404b aeba 4043 a5ba 7ec7 8ebd b606 7d3d
00000080: 4078 88bd df56 873d 4deb a0bd cba8 41bd
00000090: f440 cc3c 2a79 123d 2d60 9cbd 89bb afbd
000000a0: 4ee5 17bd c7a3 9dbd f8d9 7cbd 0c31 903c
000000b0: 26c5 9cbd ac61 97bc f2d1 4f3d 5698 a4bd
000000c0: b843 28bd f057 a7bd e73c 9ebd f95d 803d
000000d0: 18e7 483c 38ef c33c d409 1fbd a220 603d
000000e0: 8eaa 293d e8f9 413c 16ba 0ebd 90f3 5bbc
000000f0: 8e60 083d b3a5 9abd 083b 8ebd 104c df3c
00000100: ca4f 313d 2f14 03bd 22bb 08bd c154 913d
00000110: 5b8b 853d 5e31 643d 68d4 fe3c 205f 7a3b
00000120: 16ef 653d 8ce6 c1bc 35ca 7dbd 20ea efbc
00000130: 84fb a8bd 6a64 443d 18f2 5c3c e076 593c
00000140: a5e7 4cbd fa26 633d 20f7 fd3c fd3c 52bd
00000150: d82d 31bc a040 8ebb 3cf3 c3bc b44d 83bd
00000160: 0f5d ab3d 7e43 77bd ea32 183d d7a1 af3d
00000170: fe41 6e3d 4459 77bd 6ab5 4e3d 1ece 263d
00000180: 405c e73a e276 6c3d e275 3a3d 6aa1 16bd
00000190: 10b8 61bc c0d9 a23b b05e d1bc 6807 b4bc
000001a0: a79e 0abd 28ac a83c d8e0 8abd 0d62 923d
000001b0: d2dd 2a3d 62c5 273d 68a4 583c 545a 8fbc
000001c0: 5cfc b23c c267 a1bd a42a f6bc fd87 913d
000001d0: c2d2 193d 00b0 b93a f97b 2dbd ad2c 933d
000001e0: 0290 0d3d 578f 91bd 6e6c a7bd 6a70 5e3d
000001f0: 1cd4 f13c e335 aabd 4c9e 84bd 2690 d5bc
00000200: 00cf 1c3a 2c25 f43c 54aa b3bc aeb9 253d
00000210: f2fb 313d 347f 41bd d67f 583d c685 75bd
00000220: f0b4 9b3c aa1d 213d 1023 d6bb f896 6c3c
00000230: 84d5 943c a026 25bb b0d1 0dbc 8222 483d
00000240: a6eb 1e3d 8254 233d d089 aabb ac29 aabc
00000250: adc0 a5bd f2ca 273d 3376 69bd e8c9 34bc
00000260: e8ba 0fbc d017 fb3b e086 2c3c 916b 55bd
00000270: 6af3 103d 331f 923d 9716 a13d 708f eabb
00000280: c0a8 7cbc 0866 353c 0071 c3b9 fdfb 41bd
00000290: 7672 3a3d e051 1f3c 97a1 ac3d 10b4 babc
000002a0: b092 ed3b 6e4c 743d 9dcd a4bd 12f0 7a3d
000002b0: 0023 0eba 0000 cdb7 1d19 af3d bed8 b2bd
000002c0: 0819 e73c a7a1 943d 3467 b7bc b28c 43bd
000002d0: 3263 70bd 42c2 553d ef73 19bd e820 8ebd
000002e0: 3a29 2d3d b0d0 a23b d27b a0bd dc40 71bd
000002f0: 33ed 9dbd d4a7 2abd 056a b1bd 1b5d 07bd
00000300: 9535 823d 7ca2 77bd 31ac 93bd 0000 db3b
00000310: 2094 3c3b 7cc4 88bd 39db 913d 8e39 69bd
00000320: f34a 843d 3078 afbb c006 363b e40f e43c
00000330: 41f7 40bd 86a2 6f3d b292 2abd 982e 80bd
00000340: 6f14 5ebd 5cbe b1bc 36d3 7b3d 23fc 913d
00000350: 3916 5ebd 88ad a4bc 46e1 5a3d 8e2a 6abd
00000360: b29c 723d 29ce af3d 4391 8b3d 401a c9bb
00000370: 20a1 823b 6a7e 0b3d 6929 823d 58a0 dabc
00000380: 384f 173c 0002 5db9 78f7 acbc 9e31 81bd
00000390: 6ecd d4bc 6e42 a2bd 3b41 873d 7c3a 8bbd
000003a0: fadb 623d 46ee 303d 70df d03c 7056 163c
000003b0: 2016 86bc cb5e 903d 8096 18bb ca62 493d
000003c0: dd54 9fbd 6afc 2c3d 8011 23bc b2c8 213d
000003d0: 5a8c 7b3d 7808 d23c f026 dbbc efc8 b3bd
000003e0: de08 0cbd 22b2 31bd ae55 3d3d 375a 953d
000003f0: 82b5 7ebd e2ec 473d 2066 c03c 508e ca3c
0.059388034 -0.06916273 0.0027929991 0.05384647 0.052295916 0.041415773 0.017640732 0.012972914
0.07881067 -0.065487355 0.05768969 -0.076741174 0.026670873 0.06181293 0.017979622 0.05431878
-0.045039777 0.040894724 -0.080761105 0.08069282 0.05006539 -0.027630262 0.041998036 -0.068847425
-0.021291837 0.07927669 -0.024999142 0.013829708 -0.0013297573 -0.0012608543 -0.06971644 0.06177398
-0.06663561 0.06608366 -0.0785738 -0.047280114 0.024933316 0.035760082 -0.076355316 -0.08580691
-0.037083916 -0.07697254 -0.06173131 0.017601512 -0.076547906 -0.01847919 0.05073733 -0.08036868
-0.041080207 -0.081710696 -0.0772646 0.06267924 0.012262128 0.02391778 -0.038827732 0.05471862
0.04142242 0.011839367 -0.034845434 -0.013424769 0.033295207 -0.07551136 -0.06944853 0.02725795
0.043288983 -0.03200167 -0.03338159 0.07096244 0.065207206 0.055711143 0.031107143 0.0038203672
0.056136213 -0.023669504 -0.061960418 -0.029286444 -0.08251098 0.047947325 0.013485454 0.013272971
-0.0500256 0.055457093 0.031001627 -0.051327694 -0.010814153 -0.0043412 -0.023919694 -0.06411305
0.08367359 -0.0603671 0.03715793 0.085757904 0.058168404 -0.060387865 0.05046598 0.040723912
0.0017651394 0.057730563 0.045522578 -0.03677503 -0.013776794 0.0049698055 -0.025557846 -0.021976188
-0.03384271 0.020589903 -0.06781167 0.07147608 0.04171545 0.040959723 0.013222791 -0.017499126
0.02184885 -0.07881118 -0.03004963 0.07106016 0.03755451 0.0014166832 -0.042354558 0.071862556
0.034561165 -0.07107418 -0.08174978 0.054306425 0.029520087 -0.08311059 -0.06475505 -0.026069712
0.0005981773 0.029802881 -0.021931805 0.04046028 0.043453164 -0.04724045 0.05285629 -0.05994203
0.019007176 0.03933493 -0.0065349415 0.014440291 0.018168218 -0.0025200024 -0.00865595 0.048861034
0.03879895 0.039875515 -0.005204417 -0.020771824 -0.080933906 0.040965028 -0.05699749 -0.011034466
-0.008772589 0.007662751 0.010530204 -0.052104536 0.035388388 0.07134857 0.07865637 -0.0071582124
-0.0154210925 0.011071689 -0.0003727749 -0.047359455 0.045519315 0.00972411 0.08429258 -0.022790939
0.0072501525 0.0596432 -0.0804703 0.061264105 -0.00054220855 -2.4437904e-05 0.08549712 -0.087327465
0.028210178 0.07257395 -0.022388078 -0.0477416 -0.05868835 0.05218721 -0.03746408 -0.0693987
0.042275645 0.004968725 -0.07836117 -0.058899745 -0.07711258 -0.04166396 -0.086628 -0.033047777
0.06357876 -0.06045769 -0.07210577 0.0066833496 0.0028774813 -0.066781014 0.071218915 -0.056939654
0.06459608 -0.0053549036 0.002777502 0.027839608 -0.0471108 0.058504604 -0.041643806 -0.06258887
-0.054218706 -0.021697216 0.061480723 0.071281694 -0.054220412 -0.020102277 0.053437494 -0.05716949
0.059231468 0.08584244 0.06814816 -0.0061371624 0.0039864928 0.034056105 0.063555546 -0.026687786
0.009235196 -0.00021076947 -0.021114096 -0.06308292 -0.025976863 -0.07922827 0.066042386 -0.067982644
0.055385567 0.043195985 0.025497168 0.009175882 -0.016367972 0.0704933 -0.0023283064 0.04916648
-0.07779858 0.04223291 -0.009952903 0.03949804 0.061413147 0.025638804 -0.026751965 -0.087785594
-0.034188144 -0.04338277 0.04622429 0.07292598 -0.062184818 0.048809893 0.023486197 0.024726063

fc.2.bias f4 [64]
00000000: 628f 2bbd b868 90bc b0c2 f73c ed18 9a3d
00000010: d3a9 853d 71a3 a7bd b169 8b3d 6313 8d3d
00000020: 7e09 333d a034 abbb e250 1cbd cf84 71bd
00000030: 7b4a 85bd 489d c6bc c959 ab3d a7ad 30bd
00000040: 9047 6abc c828 f2bc dd77 9c3d 920e abbd
00000050: 2834 0e3c 3683 96bd 551b aabd 7431 863c
00000060: 8010 683a 3102 893d 4d31 913d 95af afbd
00000070: d086 21bc cadc 49bd 13da 6abd fd4a 30bd
00000080: 6a6e 043d 2c7f acbd 5060 b2bd 209f fcbb
00000090: 48ea 55bd 1258 303d b7e0 af3d c015 8e3b
000000a0: aa5d 6abd b41d c5bc 6e2a 233d 9074 cebc
000000b0: 3ce3 9ebc 547a 35bd 9645 50bd a83b 14bd
000000c0: 6225 5a3d 2c0d 76bd 7cae fc3c d91d 863d
000000d0: 3c22 ce3c 603d 993c 3bd0 833d 26c3 293d
000000e0: 1c9e f3bc 1b52 ab3d 825c 7a3d e0cb 4e3b
000000f0: 8ed6 663d 0ce4 ea3c 724c 8dbd e12e 09bd
-0.041884787 -0.017628059 0.030244201 0.075242855 0.06526532 -0.08185471 0.068072684 0.06888463
0.043710224 -0.0052247792 -0.038163073 -0.058964547 -0.06508347 -0.02424492 0.083667345 -0.043134358
-0.014299288 -0.029560462 0.076400496 -0.083523884 0.008679427 -0.07349245 -0.083059944 0.016381003
0.00088525563 0.06689871 0.070894815 -0.085784115 -0.009858802 -0.049282826 -0.057336878 -0.043040264
0.03233186 -0.084226936 -0.087097764 -0.007709399 -0.05222538 0.04305274 0.08587783 0.004336089
-0.05721823 -0.024062015 0.039835386 -0.025202066 -0.019395463 -0.044306114 -0.050847612 -0.036189705
0.053258307 -0.060071155 0.03084492 0.06548662 0.025162809 0.018706024 0.06436201 0.041445874
-0.029738478 0.0836527 0.06112338 0.0031554624 0.05635696 0.028673194 -0.068993464 -0.033491973

fc.4.weight f4 [4, 64]
00000000: 10aa 6f3d f235 fb3d f67a ffbd fc76 813d
00000010: 8075 0cbb caff bebd 90e5 8dbc 969d fb3d
00000020: 98f8 2dbd dcce f73d c876 a23c 644e d23d
00000030: 7480 923d 969c b1bd 30f2 76bc 78e9 5bbd
00000040: 88d5 c83c ba0f f33d 6242 da3d a405 d93d
00000050: c0a4 623c 8c75 c5bd 5857 ff3d 008c e23d
00000060: 687a 3f3d 301e 1d3d 9668 abbd 003a bdba
00000070: e0eb b6bc 72b0 8f3d 188e 03bd 5263 8a3d
00000080: 1805 9c3d 423f eebd c056 f4bd 30a6 f83c
00000090: 64e8 783d 30a4 6bbc 006c 5d3a f237 dd3d
000000a0: d408 ea3d 06e2 9c3d b022 9abd 4037 95bc
000000b0: e04e a5bb 2c00 46bd 204c 45bc c6fe d53d
000000c0: 80ee 5e3b 6c4c 603d 0064 3e3d 9c51 233d
000000d0: 6060 be3b b0da d8bc e0a8 bbbc 9e4a d8bd
000000e0: b092 2cbc c489 14bd 90eb 3bbd 80e4 94bd
000000f0: 80f3 6d3d 40bb 44bd 6057 bebd 02e9 fcbd
00000100: 1072 483c 7e46 e63d 8206 e5bd d099 3a3d
00000110: 0092 7cba 0854 f23d 544a 82bd 247b 5d3d
00000120: f0e8 563d 20c5 dcbb 1074 3a3c 3c63 3cbd
00000130: 54bc 483d e08e 943b 2638 ad3d c46d 353d
00000140: 38ca 2cbd f092 843c e823 e8bd 7860 d63d
00000150: c8dd 4e3d d0e4 053d 48b9 c4bc 0831 183d
00000160: 580a 50bd f8aa bf3d bc36 62bd 303c de3c
00000170: 6026 793d 5071 663d 2a61 bf3d 94b3 07bd
00000180: 2683 c63d 006e cd39 6e05 fdbd 9201 e3bd
00000190: 1065 683d 0c3c 5ebd a877 ee3d 1875 36bd
000001a0: b815 f1bc 7445 ab3d fcb1 703d 70dc 173d
000001b0: 0a87 e8bd 8c9f 34bd b660 db3d 58c2 3bbd
000001c0: e0ac 943b 38f7 f6bd 1822 9a3c 8c66 0cbd
000001d0: e808 52bd 985f c5bc 7ef2 a33d 84db bbbd
000001e0: b87a 283d 004e 7bbb 001b 1c3d 50e4 9c3d
000001f0: 0c2c 08bd 1269 fcbd 6023 50bc 0a8f c8bd
00000200: 5853 54bd 00e7 463c e04b fc3d bcba 1abd
00000210: fe69 fbbd acb1 12bd bc5a 94bd a886 6cbd
00000220: d053 6abc 0850 e6bc 78c1 833d 405b d93c
00000230: 300b 383c f898 143d f28c bebd f4d4 26bd
00000240: 182b ce3c a43d dd3d de8c 933d 5644 9dbd
00000250: 1c29 0cbd dc55 43bd 24a0 bf3d ca2b 913d
00000260: d8e5 87bd 386f c13d 98c2 d0bd e0c3 09bd
00000270: 9c10 c2bd e888 c93d 04c3 babd a8df 053d
00000280: 00b0 85bb dca3 173d 0420 35bd d08b 34bd
00000290: 7e95 8bbd b8a7 cb3c 16c5 9a3d 8017 a23c
000002a0: c870 d93c 88f8 163d 3e53 fb3d d806 ecbd
000002b0: e874 ff3c 443e 1bbd 9002 093c 9cd6 493d
000002c0: 00cd 793b 9c55 273d 30a5 03bc d883 ab3d
000002d0: 8045 38bd 6abb 96bd 2499 cb3d 7e38 88bd
000002e0: 004e abb9 a82e 71bd 64d5 0bbd 009d d4bd
000002f0: 6671 cabd c885 dabd fe5f a9bd a6e4 a2bd
00000300: 8047 883a e829 4fbd 883e f4bc 5a4a 83bd
00000310: c45e 783d b40c 443d d0fa 21bd 62d2 d93d
00000320: bc5d 8d3d d0b2 d93d c0fb 40bc 803c 6a3b
00000330: c4d5 7abd d808 cfbc 98f3 1b3d 6a9d 963d
00000340: 18b1 fabd 5e3a 8abd dad5 973d 9285 823d
00000350: 06c2 a9bd 8864 d5bd e0d6 20bd d8e0 03bd
00000360: 9c74 cc3d 2071 083c 78ad 8abc 887e 9dbc
00000370: a41e 4dbd 56a3 aabd 6cc2 653d 8091 2cbd
00000380: 0c59 b53d a478 073d 46ca b73d 4005 6ebc
00000390: f042 6bbd 3862 c7bc 081b d03c 5657 a13d
000003a0: a431 7fbd b859 b33d f8ee dfbc d029 e4bc
000003b0: 941f 283d ee3f cebd bc51 3a3d 6418 12bd
000003c0: 80fe d0bb 94eb f83d c4b1 babd 843d c2bd
000003d0: 5291 eb3d 6854 f9bd 5ede a63d 3e0a d83d
000003e0: 642c 603d 30ce 68bc 28e2 a5bc f0da 953c
000003f0: 2086 3a3c 401b 85bb 001c 4a3c 6e8c bb3d
0.058511794 0.122661486 -0.12474625 0.063215226 -0.002143234 -0.09326132 -0.017321378 0.122859165
-0.042473406 0.12100002 0.01983203 0.10268858 0.07153407 -0.086724445 -0.01507239 -0.05368945
0.024515882 0.11868234 0.10657193 0.10596779 0.013833225 -0.09641561 0.124678314 0.11061859
0.046747595 0.038358867 -0.083695576 -0.0014436841 -0.02232927 0.07016076 -0.032117933 0.06757225
0.07618159 -0.11633159 -0.11930609 0.030352682 0.0607685 -0.014382407 0.0008446574 0.10801686
0.11427465 0.07660298 -0.07526147 -0.018214822 -0.005044803 -0.048340008 -0.012042075 0.10448985
0.0034016669 0.05476038 0.046482086 0.03987275 0.0058098286 -0.026471466 -0.022907674 -0.10561107
-0.01053302 -0.036264196 -0.045878947 -0.072701454 0.058093548 -0.048030138 -0.09294009 -0.1234913
0.012234226 0.11243914 -0.11182882 0.045556843 -0.0009634793 0.11832434 -0.06361833 0.054072514
0.05246824 -0.0067373663 0.0113802105 -0.045993075 0.04900773 0.0045336336 0.08457975 0.044294134
-0.04218504 0.016183347 -0.113349736 0.10467619 0.050504476 0.032688916 -0.02401413 0.037156135
-0.050791115 0.093587816 -0.05522798 0.027128309 0.060827613 0.056260407 0.093447044 -0.033130243
0.09692983 0.00039182603 -0.12354551 -0.11084284 0.056737006 -0.054256484 0.11643916 -0.044545263
-0.029429302 0.083628565 0.05876349 0.03707546 -0.11353882 -0.04409747 0.107118055 -0.045839638
0.00453721 -0.12058872 0.018815085 -0.034277484 -0.051278025 -0.024093434 0.08005236 -0.09172729
0.04113266 -0.0038346052 0.038111687 0.07660735 -0.03324513 -0.12324728 -0.012703747 -0.097929075
-0.051837295 0.012140036 0.123191595 -0.03777574 -0.12276076 -0.035813972 -0.07243869 -0.057745606
-0.014302209 -0.028114334 0.064333856 0.02653277 0.011233136 0.036278695 -0.09304227 -0.04073043
0.025167033 0.10802773 0.07204603 -0.0767905 -0.034218892 -0.047689304 0.09356716 0.0708843
-0.06635636 0.094450414 -0.10193366 -0.033634067 -0.09475824 0.09840566 -0.091192275 0.032684
-0.0040798187 0.037021503 -0.044219986 -0.044078648 -0.06815623 0.024860248 0.075571224 0.019786596
0.026543036 0.03685811 0.122717366 -0.11524743 0.031183675 -0.037901178 0.008362427 0.049276933
0.0038116574 0.040853128 -0.008034989 0.083747566 -0.044988155 -0.07359965 0.09941319 -0.066514
-0.00032673776 -0.058882385 -0.034139052 -0.10381508 -0.0988491 -0.10670048 -0.08270262 -0.079537675
0.0010397285 -0.050577074 -0.029814973 -0.06410666 0.06063725 0.047863677 -0.039545834 0.106358305
0.06902644 0.10629809 -0.011778772 0.0035741627 -0.06123902 -0.025272772 0.038074106 0.07354243
-0.12240809 -0.06749414 0.07413836 0.06373133 -0.0828896 -0.104195654 -0.03926742 -0.03219685
0.09983179 0.008327752 -0.01692842 -0.019225374 -0.05007805 -0.08331935 0.05609362 -0.042130947
0.08854875 0.033074036 0.089741275 -0.014527619 -0.057436883 -0.024338827 0.025403515 0.07877986
-0.0623032 0.08757347 -0.027335629 -0.027851969 0.04104574 -0.10070787 0.045488104 -0.035667792
-0.006377995 0.12154308 -0.09115937 -0.094843894 0.11502327 -0.12174302 0.08147882 0.105488285
0.054729834 -0.014209315 -0.020249441 0.018292874 0.011384517 -0.0040620863 0.012335777 0.09157644

fc.4.bias f4 [4]
00000000: 2417 4f3d ea14 863d 88c8 f2bd c08c 95bb
0.050559178 0.06546958 -0.118546546 -0.004563898
